…
        ...,
        [0., 0., 0.,  ..., 0., 0., 0.],
        [0., 0., 0.,  ..., 0., 0., 0.],
        [0., 0., 0.,  ..., 0., 0., 0.]])
==> sample of the test data: tensor([[0., 0., 0.,  ..., 0., 0., 0.],
        [0., 0., 0.,  ..., 0., 0., 0.],
        [0., 0., 0.,  ..., 0., 0., 0.],
        ...,
        [0., 0., 0.,  ..., 0., 0., 0.],
        [0., 0., 0.,  ..., 0., 0., 0.],
        [0., 0., 0.,  ..., 0., 0., 0.]])
==> Number of classes 9
==> Number of genes 22807
==> Number of classes 9
==> Number of features 22807
ACTIVA(
  (encoder): Encoder(
    (enc_sequential): Sequential(
      (0): Linear(in_features=22807, out_features=1024, bias=True)
      (1): ReLU()
      (2): BatchNorm1d(1024, eps=1e-05, momentum=0.1, affine=True, track_running_stats=True)
      (3): Linear(in_features=1024, out_features=512, bias=True)
      (4): ReLU()
      (5): BatchNorm1d(512, eps=1e-05, momentum=0.1, affine=True, track_running_stats=True)
      (6): Linear(in_features=512, out_features=256, bias=True)
      (7): ReLU()
      (8): BatchNorm1d(256, eps=1e-05, momentum=0.1, affine=True, track_running_stats=True)
      (9): Linear(in_features=256, out_features=256, bias=True)
      (10): ReLU()
      (11): BatchNorm1d(256, eps=1e-05, momentum=0.1, affine=True, track_running_stats=True)
    )
  )
  (decoder): Decoder(
    (lsn): LSN()
    (thres_layer): ReLU()
    (dec_sequential): Sequential(
      (0): Linear(in_features=128, out_features=256, bias=True)
      (1): ReLU()
      (2): BatchNorm1d(256, eps=1e-05, momentum=0.1, affine=True, track_running_stats=True)
      (3): Linear(in_features=256, out_features=512, bias=True)
      (4): ReLU()
      (5): BatchNorm1d(512, eps=1e-05, momentum=0.1, affine=True, track_running_stats=True)
      (6): Linear(in_features=512, out_features=1024, bias=True)
      (7): ReLU()
      (8): BatchNorm1d(1024, eps=1e-05, momentum=0.1, affine=True, track_running_stats=True)
      (9): Linear(in_features=1024, out_features=22807, bias=True)
      (10): ReLU()
    )
  )
)

 Classifier Model 

Classifier(
  (classifier_sequential): Sequential(
    (0): Linear(in_features=22807, out_features=100, bias=True)
    (1): ReLU()
    (2): Linear(in_features=100, out_features=50, bias=True)
    (3): ReLU()
    (4): Linear(in_features=50, out_features=25, bias=True)
    (5): ReLU()
    (6): Linear(in_features=25, out_features=9, bias=True)
  )
)
ACTIVA Training:   0%|                                                                                          | 0/600 [00:00<?, ?it/s]    -> Classifier Initial stats: 
====> Classifier Cur_iter: [0]: Epoch[1](0/547): time: 2.1571: Loss: 2.4197 
    -> VAE Initial stats: 
====> VAE Cur_iter: [0]: Epoch[1](0/547): time: 2.2783: Rec: 958692.6250, KL: 193.3673,
…
